…
    I0902 13:35:56.656791 16020 net.cpp:67] Creating Layer mnist
    I0902 13:35:56.656811 16020 net.cpp:356] mnist -> data
    I0902 13:35:56.656846 16020 net.cpp:356] mnist -> label
    I0902 13:35:56.656874 16020 net.cpp:96] Setting up mnist
    I0902 13:35:56.694052 16020 data_layer.cpp:135] Opening lmdb examples/mnist/mnist_train_lmdb
    I0902 13:35:56.701062 16020 data_layer.cpp:195] output data size: 64,1,28,28
    I0902 13:35:56.701146 16020 data_layer.cpp:236] Initializing prefetch
    I0902 13:35:56.701196 16020 data_layer.cpp:238] Prefetch initialized.
    I0902 13:35:56.701212 16020 net.cpp:103] Top shape: 64 1 28 28 (50176)
    I0902 13:35:56.701230 16020 net.cpp:103] Top shape: 64 1 1 1 (64)
    [...]
    I0902 13:35:56.703737 16020 net.cpp:67] Creating Layer ip1
    I0902 13:35:56.703753 16020 net.cpp:394] ip1 <- pool2
    I0902 13:35:56.703778 16020 net.cpp:356] ip1 -> ip1
    I0902 13:35:56.703797 16020 net.cpp:96] Setting up ip1
    I0902 13:35:56.728127 16020 net.cpp:103] Top shape: 64 500 1 1 (32000)
    I0902 13:35:56.728142 16020 net.cpp:113] Memory required for data: 5039360
    I0902 13:35:56.728175 16020 net.cpp:67] Creating Layer relu1
    I0902 13:35:56.728194 16020 net.cpp:394] relu1 <- ip1
    I0902 13:35:56.728219 16020 net.cpp:345] relu1 -> ip1 (in-place)
    I0902 13:35:56.728240 16020 net.cpp:96] Setting up relu1
    I0902 13:35:56.728256 16020 net.cpp:103] Top shape: 64 500 1 1 (32000)
    I0902 13:35:56.728270 16020 net.cpp:113] Memory required for data: 5167360
    I0902 13:35:56.728287 16020 net.cpp:67] Creating Layer ip2
    I0902 13:35:56.728304 16020 net.cpp:394] ip2 <- ip1
    I0902 13:35:56.728333 16020 net.cpp:356] ip2 -> ip2
    I0902 13:35:56.728356 16020 net.cpp:96] Setting up ip2
    I0902 13:35:56.728690 16020 net.cpp:103] Top shape: 64 10 1 1 (640)
    I0902 13:35:56.728705 16020 net.cpp:113] Memory required for data: 5169920
    I0902 13:35:56.728734 16020 net.cpp:67] Creating Layer loss
    I0902 13:35:56.728747 16020 net.cpp:394] loss <- ip2
    I0902 13:35:56.728767 16020 net.cpp:394] loss <- label
    I0902 13:35:56.728786 16020 net.cpp:356] loss -> loss
    I0902 13:35:56.728811 16020 net.cpp:96] Setting up loss
    I0902 13:35:56.728837 16020 net.cpp:103] Top shape: 1 1 1 1 (1)
    I0902 13:35:56.728849 16020 net.cpp:109]     with loss weight 1
    I0902 13:35:56.728878 16020 net.cpp:113] Memory required for data: 5169924

Loss

    I0902 13:35:56.728893 16020 net.cpp:170] loss needs backward computation.
    I0902 13:35:56.728909 16020 net.cpp:170] ip2 needs backward computation.
    I0902 13:35:56.728924 16020 net.cpp:170] relu1 needs backward computation.
    I0902 13:35:56.728938 16020 net.cpp:170] ip1 needs backward computation.
…
The net is a set of layers connected in a computation graph -- a directed acyclic graph (DAG) to be exact. Caffe does all the bookkeeping for any DAG of layers to ensure correctness of the forward and backward passes. A typical net begins with a data layer that loads from disk and ends with a loss layer that computes the objective for a task such as classification or reconstruction.

The net is defined as a set of layers and their connections in a plaintext modeling language.
A simple logistic regression classifier

<img src="fig/logreg.jpg" alt="Softmax Regression" width="256">

is defined by

    name: "LogReg"
    layer {
      name: "mnist"
      type: "Data"
      top: "data"
      top: "label"
      data_param {
        source: "input_leveldb"
        batch_size: 64
      }
    }
    layer {
      name: "ip"
      type: "InnerProduct"
      bottom: "data"
      top: "ip"
      inner_product_param {
        num_output: 2
      }
    }
    layer {
      name: "loss"
      type: "SoftmaxWithLoss"
      bottom: "ip"
      bottom: "label"
      top: "loss"
    }

Model initialization is handled by `Net::Init()`. The initialization mainly does two things: scaffolding the overall DAG by creating the blobs and layers (for C++ geeks: the network will retain ownership of the blobs and layers during its lifetime), and calls the layers' `SetUp()` function. It also does a set of other bookkeeping things, such as validating the correctness of the overall network architecture. Also, during initialization the Net explains its initialization by logging to INFO as it goes:

    I0902 22:52:17.931977 2079114000 net.cpp:39] Initializing net from parameters:
    name: "LogReg"
    [...model prototxt printout...]
    # construct the network layer-by-layer
    I0902 22:52:17.932152 2079114000 net.cpp:67] Creating Layer mnist
    I0902 22:52:17.932165 2079114000 net.cpp:356] mnist -> data
    I0902 22:52:17.932188 2079114000 net.cpp:356] mnist -> label
    I0902 22:52:17.932200 2079114000 net.cpp:96] Setting up mnist
    I0902 22:52:17.935807 2079114000 data_layer.cpp:135] Opening leveldb input_leveldb
    I0902 22:52:17.937155 2079114000 data_layer.cpp:195] output data size: 64,1,28,28
    I0902 22:52:17.938570 2079114000 net.cpp:103] Top shape: 64 1 28 28 (50176)
    I0902 22:52:17.938593 2079114000 net.cpp:103] Top shape: 64 (64)
    I0902 22:52:17.938611 2079114000 net.cpp:67] Creating Layer ip
    I0902 22:52:17.938617 2079114000 net.cpp:394] ip <- data
    I0902 22:52:17.939177 2079114000 net.cpp:356] ip -> ip
    I0902 22:52:17.939196 2079114000 net.cpp:96] Setting up ip
    I0902 22:52:17.940289 2079114000 net.cpp:103] Top shape: 64 2 (128)
    I0902 22:52:17.941270 2079114000 net.cpp:67] Creating Layer loss
    I0902 22:52:17.941305 2079114000 net.cpp:394] loss <- ip
    I0902 22:52:17.941314 2079114000 net.cpp:394] loss <- label
    I0902 22:52:17.941323 2079114000 net.cpp:356] loss -> loss
    # set up the loss and configure the backward pass
    I0902 22:52:17.941328 2079114000 net.cpp:96] Setting up loss
    I0902 22:52:17.941328 2079114000 net.cpp:103] Top shape: (1)
…
Specifically, this layer has name `mnist`, type `data`, and it reads the data from the given lmdb source. We will use a batch size of 64, and scale the incoming pixels so that they are in the range \[0,1\). Why 0.00390625? It is 1 divided by 256. And finally, this layer produces two blobs, one is the `data` blob, and one is the `label` blob.

### Writing the Convolution Layer

Let's define the first convolution layer:

    layer {
      name: "conv1"
      type: "Convolution"
      param { lr_mult: 1 }
      param { lr_mult: 2 }
      convolution_param {
        num_output: 20
        kernel_size: 5
        stride: 1
        weight_filler {
          type: "xavier"
        }
        bias_filler {
          type: "constant"
        }
      }
      bottom: "data"
      top: "conv1"
    }

This layer takes the `data` blob (it is provided by the data layer), and produces the `conv1` layer. It produces outputs of 20 channels, with the convolutional kernel size 5 and carried out with stride 1.

The fillers allow us to randomly initialize the value of the weights and bias. For the weight filler, we will use the `xavier` algorithm that automatically determines the scale of initialization based on the number of input and output neurons. For the bias filler, we will simply initialize it as constant, with the default filling value 0.

`lr_mult`s are the learning rate adjustments for the layer's learnable parameters. In this case, we will set the weight learning rate to be the same as the learning rate given by the solver during runtime, and the bias learning rate to be twice as large as that - this usually leads to better convergence rates.

### Writing the Pooling Layer

Phew. Pooling layers are actually much easier to define:

    layer {
      name: "pool1"
      type: "Pooling"
      pooling_param {
        kernel_size: 2
        stride: 2
        pool: MAX
      }
      bottom: "conv1"
      top: "pool1"
    }

This says we will perform max pooling with a pool kernel size 2 and a stride of 2 (so no overlapping between neighboring pooling regions).

Similarly, you can write up the second convolution and pooling layers. Check `$CAFFE_ROOT/examples/mnist/lenet_train_test.prototxt` for details.

### Writing the Fully Connected Layer

Writing a fully connected layer is also simple:

    layer {
      name: "ip1"
      type: "InnerProduct"
      param { lr_mult: 1 }
      param { lr_mult: 2 }
      inner_product_param {
        num_output: 500
        weight_filler {
          type: "xavier"
        }
        bias_filler {
          type: "constant"
        }
      }
      bottom: "pool2"
      top: "ip1"
    }

This defines a fully connected layer (known in Caffe as an `InnerProduct` layer) with 500 outputs. All other lines look familiar, right?

### Writing the ReLU Layer

A ReLU Layer is also simple:

    layer {
      name: "relu1"
      type: "ReLU"
      bottom: "ip1"
      top: "ip1"
    }

Since ReLU is an element-wise operation, we can do *in-place* operations to save some memory. This is achieved by simply giving the same name to the bottom and top blobs. Of course, do NOT use duplicated blob names for other layer types!

After the ReLU layer, we will write another innerproduct layer:

    layer {
      name: "ip2"
      type: "InnerProduct"
      param { lr_mult: 1 }
      param { lr_mult: 2 }
      inner_product_param {
        num_output: 10
        weight_filler {
          type: "xavier"
        }
        bias_filler {
          type: "constant"
        }
      }
      bottom: "ip1"
      top: "ip2"
    }

### Writing the Loss Layer

Finally, we will write the loss!

    layer {
      name: "loss"
      type: "SoftmaxWithLoss"
      bottom: "ip2"
      bottom: "label"
    }

The `softmax_loss` layer implements both the softmax and the multinomial logistic loss (that saves time and improves numerical stability). It takes two blobs, the first one being the prediction and the second one being the `label` provided by the data layer (remember it?). It does not produce any outputs - all it does is to compute the loss function value, report it when backpropagation starts, and initiates the gradient with respect to `ip2`. This is where all magic starts.
…
